{"format": "graph-model", "generatedBy": "2.19.0", "convertedBy": "TensorFlow.js Converter v4.22.0", "signature": {"inputs": {"waveform": {"name": "waveform:0", "dtype": "DT_FLOAT", "tensorShape": {"dim": [{"size": "-1"}, {"size": "3360"}]}}}, "outputs": {"output_0": {"name": "Identity:0", "dtype": "DT_FLOAT", "tensorShape": {"dim": [{"size": "-1"}, {"size": "6"}]}}}}, "modelTopology": {"node": [{"name": "StatefulPartitionedCall/vowel_classifier_1/mel_spectrogram_1/stft/frame/zeros_like", "op": "Const", "attr": {"value": {"tensor": {"dtype": "DT_INT32", "tensorShape": {"dim": [{"size": "2"}]}}}, "dtype": {"type": "DT_INT32"}}}, {"name": "StatefulPartitionedCall/vowel_classifier_1/mel_spectrogram_1/stft/frame/mul/y", "op": "Const", "attr": {"value": {"tensor": {"dtype": "DT_INT32", "tensorShape": {}}}, "dtype": {"type": "DT_INT32"}}}, {"name": "StatefulPartitionedCall/vowel_classifier_1/mel_spectrogram_1/stft/frame/concat/axis", "op": "Const", "attr": {"value": {"tensor": {"dtype": "DT_INT32", "tensorShape": {}}}, "dtype": {"type": "DT_INT32"}}}, {"name": "StatefulPartitionedCall/vowel_classifier_1/mel_spectrogram_1/stft/frame/ones_like", "op": "Const", "attr": {"value": {"tensor": {"dtype": "DT_INT32", "tensorShape": {"dim": [{"size": "2"}]}}}, "dtype": {"type": "DT_INT32"}}}, {"name": "StatefulPartitionedCall/vowel_classifier_1/mel_spectrogram_1/stft/frame/floordiv_3/y", "op": "Const", "attr": {"value": {"tensor": {"dtype": "DT_INT32", "tensorShape": {}}}, "dtype": {"type": "DT_INT32"}}}, {"name": "StatefulPartitionedCall/vowel_classifier_1/mel_spectrogram_1/stft/frame/concat_1/values_1/1", "op": "Const", "attr": {"value": {"tensor": {"dtype": "DT_INT32", "tensorShape": {}}}, "dtype": {"type": "DT_INT32"}}}, {"name": "StatefulPartitionedCall/vowel_classifier_1/mel_spectrogram_1/stft/frame/concat_1/axis", "op": "Const", "attr": {"value": {"tensor": {"dtype": "DT_INT32", "tensorShape": {}}}, "dtype": {"type": "DT_INT32"}}}, {"name": "StatefulPartitionedCall/vowel_classifier_1/mel_spectrogram_1/stft/frame/range_1/start", "op": "Const", "attr": {"value": {"tensor": {"dtype": "DT_INT32", "tensorShape": {}}}, "dtype": {"type": "DT_INT32"}}}, {"name": "StatefulPartitionedCall/vowel_classifier_1/mel_spectrogram_1/stft/frame/range_1/delta", "op": "Const", "attr": {"value": {"tensor": {"dtype": "DT_INT32", "tensorShape": {}}}, "dtype": {"type": "DT_INT32"}}}, {"name": "StatefulPartitionedCall/vowel_classifier_1/mel_spectrogram_1/stft/frame/floordiv_2", "op": "Const", "attr": {"value": {"tensor": {"dtype": "DT_INT32", "tensorShape": {}}}, "dtype": {"type": "DT_INT32"}}}, {"name": "StatefulPartitionedCall/vowel_classifier_1/mel_spectrogram_1/stft/frame/Reshape_2/shape/1", "op": "Const", "attr": {"value": {"tensor": {"dtype": "DT_INT32", "tensorShape": {}}}, "dtype": {"type": "DT_INT32"}}}, {"name": "StatefulPartitionedCall/vowel_classifier_1/mel_spectrogram_1/stft/frame/Reshape_3", "op": "Const", "attr": {"value": {"tensor": {"dtype": "DT_INT32", "tensorShape": {"dim": [{"size": "1"}, {"size": "5"}]}}}, "dtype": {"type": "DT_INT32"}}}, {"name": "StatefulPartitionedCall/vowel_classifier_1/mel_spectrogram_1/stft/frame/strided_slice", "op": "Const", "attr": {"value": {"tensor": {"dtype": "DT_INT32", "tensorShape": {}}}, "dtype": {"type": "DT_INT32"}}}, {"name": "StatefulPartitionedCall/vowel_classifier_1/mel_spectrogram_1/stft/frame/Const", "op": "Const", "attr": {"value": {"tensor": {"dtype": "DT_INT32", "tensorShape": {}}}, "dtype": {"type": "DT_INT32"}}}, {"name": "StatefulPartitionedCall/vowel_classifier_1/mel_spectrogram_1/stft/frame/add/x", "op": "Const", "attr": {"value": {"tensor": {"dtype": "DT_INT32", "tensorShape": {}}}, "dtype": {"type": "DT_INT32"}}}, {"name": "StatefulPartitionedCall/vowel_classifier_1/mel_spectrogram_1/stft/frame/Reshape/shape_1", "op": "Const", "attr": {"value": {"tensor": {"dtype": "DT_INT32", "tensorShape": {"dim": [{}]}}}, "dtype": {"type": "DT_INT32"}}}, {"name": "StatefulPartitionedCall/vowel_classifier_1/mel_spectrogram_1/stft/frame_step", "op": "Const", "attr": {"value": {"tensor": {"dtype": "DT_INT32", "tensorShape": {}}}, "dtype": {"type": "DT_INT32"}}}, {"name": "StatefulPartitionedCall/vowel_classifier_1/mel_spectrogram_1/stft/frame_length", "op": "Const", "attr": {"value": {"tensor": {"dtype": "DT_INT32", "tensorShape": {}}}, "dtype": {"type": "DT_INT32"}}}, {"name": "StatefulPartitionedCall/vowel_classifier_1/mel_spectrogram_1/stft/frame/packed", "op": "Const", "attr": {"value": {"tensor": {"dtype": "DT_INT32", "tensorShape": {"dim": [{"size": "3"}]}}}, "dtype": {"type": "DT_INT32"}}}, {"name": "StatefulPartitionedCall/vowel_classifier_1/mel_spectrogram_1/stft/frame/split/split_dim", "op": "Const", "attr": {"value": {"tensor": {"dtype": "DT_INT32", "tensorShape": {}}}, "dtype": {"type": "DT_INT32"}}}, {"name": "StatefulPartitionedCall/vowel_classifier_1/mel_spectrogram_1/stft/frame/concat_2/axis", "op": "Const", "attr": {"value": {"tensor": {"dtype": "DT_INT32", "tensorShape": {}}}, "dtype": {"type": "DT_INT32"}}}, {"name": "StatefulPartitionedCall/vowel_classifier_1/mel_spectrogram_1/stft/hann_window/sub_2", "op": "Const", "attr": {"value": {"tensor": {"dtype": "DT_FLOAT", "tensorShape": {"dim": [{"size": "400"}]}}}, "dtype": {"type": "DT_FLOAT"}}}, {"name": "StatefulPartitionedCall/vowel_classifier_1/mel_spectrogram_1/stft/rfft/Pad/paddings", "op": "Const", "attr": {"value": {"tensor": {"dtype": "DT_INT32", "tensorShape": {"dim": [{"size": "3"}, {"size": "2"}]}}}, "dtype": {"type": "DT_INT32"}}}, {"name": "StatefulPartitionedCall/vowel_classifier_1/mel_spectrogram_1/stft/rfft/fft_length", "op": "Const", "attr": {"value": {"tensor": {"dtype": "DT_INT32", "tensorShape": {"dim": [{"size": "1"}]}}}, "dtype": {"type": "DT_INT32"}}}, {"name": "StatefulPartitionedCall/vowel_classifier_1/mel_spectrogram_1/MatMul/ReadVariableOp", "op": "Const", "attr": {"value": {"tensor": {"dtype": "DT_FLOAT", "tensorShape": {"dim": [{"size": "257"}, {"size": "40"}]}}}, "dtype": {"type": "DT_FLOAT"}}}, {"name": "StatefulPartitionedCall/vowel_classifier_1/mel_spectrogram_1/add/y", "op": "Const", "attr": {"value": {"tensor": {"dtype": "DT_FLOAT", "tensorShape": {}}}, "dtype": {"type": "DT_FLOAT"}}}, {"name": "StatefulPartitionedCall/vowel_classifier_1/mel_spectrogram_1/ExpandDims/dim", "op": "Const", "attr": {"value": {"tensor": {"dtype": "DT_INT32", "tensorShape": {}}}, "dtype": {"type": "DT_INT32"}}}, {"name": "StatefulPartitionedCall/vowel_classifier_1/conv1_1/convolution/ReadVariableOp", "op": "Const", "attr": {"value": {"tensor": {"dtype": "DT_FLOAT", "tensorShape": {"dim": [{"size": "3"}, {"size": "3"}, {"size": "1"}, {"size": "32"}]}}}, "dtype": {"type": "DT_FLOAT"}}}, {"name": "StatefulPartitionedCall/vowel_classifier_1/conv1_1/Squeeze", "op": "Const", "attr": {"value": {"tensor": {"dtype": "DT_FLOAT", "tensorShape": {"dim": [{"size": "32"}]}}}, "dtype": {"type": "DT_FLOAT"}}}, {"name": "StatefulPartitionedCall/vowel_classifier_1/bn1_1/batchnorm/mul", "op": "Const", "attr": {"value": {"tensor": {"dtype": "DT_FLOAT", "tensorShape": {"dim": [{"size": "32"}]}}}, "dtype": {"type": "DT_FLOAT"}}}, {"name": "StatefulPartitionedCall/vowel_classifier_1/bn1_1/batchnorm/sub", "op": "Const", "attr": {"value": {"tensor": {"dtype": "DT_FLOAT", "tensorShape": {"dim": [{"size": "32"}]}}}, "dtype": {"type": "DT_FLOAT"}}}, {"name": "StatefulPartitionedCall/vowel_classifier_1/conv2_1/convolution/ReadVariableOp", "op": "Const", "attr": {"value": {"tensor": {"dtype": "DT_FLOAT", "tensorShape": {"dim": [{"size": "3"}, {"size": "3"}, {"size": "32"}, {"size": "64"}]}}}, "dtype": {"type": "DT_FLOAT"}}}, {"name": "StatefulPartitionedCall/vowel_classifier_1/conv2_1/Squeeze", "op": "Const", "attr": {"value": {"tensor": {"dtype": "DT_FLOAT", "tensorShape": {"dim": [{"size": "64"}]}}}, "dtype": {"type": "DT_FLOAT"}}}, {"name": "StatefulPartitionedCall/vowel_classifier_1/bn2_1/batchnorm/mul", "op": "Const", "attr": {"value": {"tensor": {"dtype": "DT_FLOAT", "tensorShape": {"dim": [{"size": "64"}]}}}, "dtype": {"type": "DT_FLOAT"}}}, {"name": "StatefulPartitionedCall/vowel_classifier_1/bn2_1/batchnorm/sub", "op": "Const", "attr": {"value": {"tensor": {"dtype": "DT_FLOAT", "tensorShape": {"dim": [{"size": "64"}]}}}, "dtype": {"type": "DT_FLOAT"}}}, {"name": "StatefulPartitionedCall/vowel_classifier_1/conv3_1/convolution/ReadVariableOp", "op": "Const", "attr": {"value": {"tensor": {"dtype": "DT_FLOAT", "tensorShape": {"dim": [{"size": "3"}, {"size": "3"}, {"size": "64"}, {"size": "64"}]}}}, "dtype": {"type": "DT_FLOAT"}}}, {"name": "StatefulPartitionedCall/vowel_classifier_1/conv3_1/Squeeze", "op": "Const", "attr": {"value": {"tensor": {"dtype": "DT_FLOAT", "tensorShape": {"dim": [{"size": "64"}]}}}, "dtype": {"type": "DT_FLOAT"}}}, {"name": "StatefulPartitionedCall/vowel_classifier_1/bn3_1/batchnorm/mul", "op": "Const", "attr": {"value": {"tensor": {"dtype": "DT_FLOAT", "tensorShape": {"dim": [{"size": "64"}]}}}, "dtype": {"type": "DT_FLOAT"}}}, {"name": "StatefulPartitionedCall/vowel_classifier_1/bn3_1/batchnorm/sub", "op": "Const", "attr": {"value": {"tensor": {"dtype": "DT_FLOAT", "tensorShape": {"dim": [{"size": "64"}]}}}, "dtype": {"type": "DT_FLOAT"}}}, {"name": "StatefulPartitionedCall/vowel_classifier_1/gap_1/Mean/reduction_indices", "op": "Const", "attr": {"value": {"tensor": {"dtype": "DT_INT32", "tensorShape": {"dim": [{"size": "2"}]}}}, "dtype": {"type": "DT_INT32"}}}, {"name": "StatefulPartitionedCall/vowel_classifier_1/dense1_1/Cast/ReadVariableOp", "op": "Const", "attr": {"value": {"tensor": {"dtype": "DT_FLOAT", "tensorShape": {"dim": [{"size": "64"}, {"size": "32"}]}}}, "dtype": {"type": "DT_FLOAT"}}}, {"name": "StatefulPartitionedCall/vowel_classifier_1/dense1_1/BiasAdd/ReadVariableOp", "op": "Const", "attr": {"value": {"tensor": {"dtype": "DT_FLOAT", "tensorShape": {"dim": [{"size": "32"}]}}}, "dtype": {"type": "DT_FLOAT"}}}, {"name": "StatefulPartitionedCall/vowel_classifier_1/vowel_output_1/Cast/ReadVariableOp", "op": "Const", "attr": {"value": {"tensor": {"dtype": "DT_FLOAT", "tensorShape": {"dim": [{"size": "32"}, {"size": "6"}]}}}, "dtype": {"type": "DT_FLOAT"}}}, {"name": "StatefulPartitionedCall/vowel_classifier_1/vowel_output_1/BiasAdd/ReadVariableOp", "op": "Const", "attr": {"value": {"tensor": {"dtype": "DT_FLOAT", "tensorShape": {"dim": [{"size": "6"}]}}}, "dtype": {"type": "DT_FLOAT"}}}, {"name": "waveform", "op": "Placeholder", "attr": {"shape": {"shape": {"dim": [{"size": "-1"}, {"size": "3360"}]}}, "dtype": {"type": "DT_FLOAT"}}}, {"name": "StatefulPartitionedCall/vowel_classifier_1/mel_spectrogram_1/stft/frame/Shape", "op": "Shape", "input": ["waveform"], "attr": {"T": {"type": "DT_FLOAT"}, "out_type": {"type": "DT_INT32"}}, "experimentalType": {"typeId": "TFT_PRODUCT", "args": [{"typeId": "TFT_SHAPE_TENSOR", "args": [{"typeId": "TFT_INT32"}]}]}}, {"name": "StatefulPartitionedCall/vowel_classifier_1/mel_spectrogram_1/stft/frame/split", "op": "SplitV", "input": ["StatefulPartitionedCall/vowel_classifier_1/mel_spectrogram_1/stft/frame/Shape", "StatefulPartitionedCall/vowel_classifier_1/mel_spectrogram_1/stft/frame/packed", "StatefulPartitionedCall/vowel_classifier_1/mel_spectrogram_1/stft/frame/split/split_dim"], "attr": {"num_split": {"i": "3"}, "T": {"type": "DT_INT32"}, "Tlen": {"type": "DT_INT32"}}}, {"name": "StatefulPartitionedCall/vowel_classifier_1/mel_spectrogram_1/stft/frame/Reshape", "op": "Reshape", "input": ["StatefulPartitionedCall/vowel_classifier_1/mel_spectrogram_1/stft/frame/split:1", "StatefulPartitionedCall/vowel_classifier_1/mel_spectrogram_1/stft/frame/Reshape/shape_1"], "attr": {"T": {"type": "DT_INT32"}, "Tshape": {"type": "DT_INT32"}}}, {"name": "StatefulPartitionedCall/vowel_classifier_1/mel_spectrogram_1/stft/frame/floordiv_3", "op": "FloorDiv", "input": ["StatefulPartitionedCall/vowel_classifier_1/mel_spectrogram_1/stft/frame/Reshape", "StatefulPartitionedCall/vowel_classifier_1/mel_spectrogram_1/stft/frame/floordiv_3/y"], "attr": {"T": {"type": "DT_INT32"}}}, {"name": "StatefulPartitionedCall/vowel_classifier_1/mel_spectrogram_1/stft/frame/sub_2", "op": "Sub", "input": ["StatefulPartitionedCall/vowel_classifier_1/mel_spectrogram_1/stft/frame/Reshape", "StatefulPartitionedCall/vowel_classifier_1/mel_spectrogram_1/stft/frame_length"], "attr": {"T": {"type": "DT_INT32"}}}, {"name": "StatefulPartitionedCall/vowel_classifier_1/mel_spectrogram_1/stft/frame/mul", "op": "Mul", "input": ["StatefulPartitionedCall/vowel_classifier_1/mel_spectrogram_1/stft/frame/floordiv_3", "StatefulPartitionedCall/vowel_classifier_1/mel_spectrogram_1/stft/frame/mul/y"], "attr": {"T": {"type": "DT_INT32"}}}, {"name": "StatefulPartitionedCall/vowel_classifier_1/mel_spectrogram_1/stft/frame/concat_1/values_1", "op": "Pack", "input": ["StatefulPartitionedCall/vowel_classifier_1/mel_spectrogram_1/stft/frame/floordiv_3", "StatefulPartitionedCall/vowel_classifier_1/mel_spectrogram_1/stft/frame/concat_1/values_1/1"], "attr": {"N": {"i": "2"}, "axis": {"i": "0"}, "T": {"type": "DT_INT32"}}}, {"name": "StatefulPartitionedCall/vowel_classifier_1/mel_spectrogram_1/stft/frame/floordiv", "op": "FloorDiv", "input": ["StatefulPartitionedCall/vowel_classifier_1/mel_spectrogram_1/stft/frame/sub_2", "StatefulPartitionedCall/vowel_classifier_1/mel_spectrogram_1/stft/frame_step"], "attr": {"T": {"type": "DT_INT32"}}}, {"name": "ConstantFolding/StatefulPartitionedCall/vowel_classifier_1/mel_spectrogram_1/stft/frame/concat/values_1_const_axis", "op": "Const", "input": ["^StatefulPartitionedCall/vowel_classifier_1/mel_spectrogram_1/stft/frame/mul"], "attr": {"value": {"tensor": {"dtype": "DT_INT32", "tensorShape": {}}}, "dtype": {"type": "DT_INT32"}}}, {"name": "StatefulPartitionedCall/vowel_classifier_1/mel_spectrogram_1/stft/frame/concat_1", "op": "ConcatV2", "input": ["StatefulPartitionedCall/vowel_classifier_1/mel_spectrogram_1/stft/frame/split", "StatefulPartitionedCall/vowel_classifier_1/mel_spectrogram_1/stft/frame/concat_1/values_1", "StatefulPartitionedCall/vowel_classifier_1/mel_spectrogram_1/stft/frame/split:2", "StatefulPartitionedCall/vowel_classifier_1/mel_spectrogram_1/stft/frame/concat_1/axis"], "attr": {"N": {"i": "3"}, "T": {"type": "DT_INT32"}, "Tidx": {"type": "DT_INT32"}}}, {"name": "StatefulPartitionedCall/vowel_classifier_1/mel_spectrogram_1/stft/frame/add", "op": "AddV2", "input": ["StatefulPartitionedCall/vowel_classifier_1/mel_spectrogram_1/stft/frame/add/x", "StatefulPartitionedCall/vowel_classifier_1/mel_spectrogram_1/stft/frame/floordiv"], "attr": {"T": {"type": "DT_INT32"}}}, {"name": "StatefulPartitionedCall/vowel_classifier_1/mel_spectrogram_1/stft/frame/concat/values_1", "op": "ExpandDims", "input": ["StatefulPartitionedCall/vowel_classifier_1/mel_spectrogram_1/stft/frame/mul", "ConstantFolding/StatefulPartitionedCall/vowel_classifier_1/mel_spectrogram_1/stft/frame/concat/values_1_const_axis"], "attr": {"Tdim": {"type": "DT_INT32"}, "T": {"type": "DT_INT32"}}}, {"name": "StatefulPartitionedCall/vowel_classifier_1/mel_spectrogram_1/stft/frame/Maximum", "op": "Maximum", "input": ["StatefulPartitionedCall/vowel_classifier_1/mel_spectrogram_1/stft/frame/Const", "StatefulPartitionedCall/vowel_classifier_1/mel_spectrogram_1/stft/frame/add"], "attr": {"T": {"type": "DT_INT32"}}}, {"name": "StatefulPartitionedCall/vowel_classifier_1/mel_spectrogram_1/stft/frame/concat", "op": "ConcatV2", "input": ["StatefulPartitionedCall/vowel_classifier_1/mel_spectrogram_1/stft/frame/split", "StatefulPartitionedCall/vowel_classifier_1/mel_spectrogram_1/stft/frame/concat/values_1", "StatefulPartitionedCall/vowel_classifier_1/mel_spectrogram_1/stft/frame/split:2", "StatefulPartitionedCall/vowel_classifier_1/mel_spectrogram_1/stft/frame/concat/axis"], "attr": {"N": {"i": "3"}, "Tidx": {"type": "DT_INT32"}, "T": {"type": "DT_INT32"}}}, {"name": "StatefulPartitionedCall/vowel_classifier_1/mel_spectrogram_1/stft/frame/range_1", "op": "Range", "input": ["StatefulPartitionedCall/vowel_classifier_1/mel_spectrogram_1/stft/frame/range_1/start", "StatefulPartitionedCall/vowel_classifier_1/mel_spectrogram_1/stft/frame/Maximum", "StatefulPartitionedCall/vowel_classifier_1/mel_spectrogram_1/stft/frame/range_1/delta"], "attr": {"Tidx": {"type": "DT_INT32"}}}, {"name": "StatefulPartitionedCall/vowel_classifier_1/mel_spectrogram_1/stft/frame/Reshape_2/shape", "op": "Pack", "input": ["StatefulPartitionedCall/vowel_classifier_1/mel_spectrogram_1/stft/frame/Maximum", "StatefulPartitionedCall/vowel_classifier_1/mel_spectrogram_1/stft/frame/Reshape_2/shape/1"], "attr": {"N": {"i": "2"}, "axis": {"i": "0"}, "T": {"type": "DT_INT32"}}}, {"name": "StatefulPartitionedCall/vowel_classifier_1/mel_spectrogram_1/stft/frame/packed_1", "op": "Pack", "input": ["StatefulPartitionedCall/vowel_classifier_1/mel_spectrogram_1/stft/frame/Maximum", "StatefulPartitionedCall/vowel_classifier_1/mel_spectrogram_1/stft/frame_length"], "attr": {"N": {"i": "2"}, "axis": {"i": "0"}, "T": {"type": "DT_INT32"}}}, {"name": "StatefulPartitionedCall/vowel_classifier_1/mel_spectrogram_1/stft/frame/StridedSlice", "op": "StridedSlice", "input": ["waveform", "StatefulPartitionedCall/vowel_classifier_1/mel_spectrogram_1/stft/frame/zeros_like", "StatefulPartitionedCall/vowel_classifier_1/mel_spectrogram_1/stft/frame/concat", "StatefulPartitionedCall/vowel_classifier_1/mel_spectrogram_1/stft/frame/ones_like"], "attr": {"shrink_axis_mask": {"i": "0"}, "new_axis_mask": {"i": "0"}, "Index": {"type": "DT_INT32"}, "begin_mask": {"i": "0"}, "T": {"type": "DT_FLOAT"}, "end_mask": {"i": "0"}, "ellipsis_mask": {"i": "0"}}}, {"name": "StatefulPartitionedCall/vowel_classifier_1/mel_spectrogram_1/stft/frame/mul_1", "op": "Mul", "input": ["StatefulPartitionedCall/vowel_classifier_1/mel_spectrogram_1/stft/frame/range_1", "StatefulPartitionedCall/vowel_classifier_1/mel_spectrogram_1/stft/frame/floordiv_2"], "attr": {"T": {"type": "DT_INT32"}}}, {"name": "StatefulPartitionedCall/vowel_classifier_1/mel_spectrogram_1/stft/frame/concat_2", "op": "ConcatV2", "input": ["StatefulPartitionedCall/vowel_classifier_1/mel_spectrogram_1/stft/frame/split", "StatefulPartitionedCall/vowel_classifier_1/mel_spectrogram_1/stft/frame/packed_1", "StatefulPartitionedCall/vowel_classifier_1/mel_spectrogram_1/stft/frame/split:2", "StatefulPartitionedCall/vowel_classifier_1/mel_spectrogram_1/stft/frame/concat_2/axis"], "attr": {"N": {"i": "3"}, "Tidx": {"type": "DT_INT32"}, "T": {"type": "DT_INT32"}}}, {"name": "StatefulPartitionedCall/vowel_classifier_1/mel_spectrogram_1/stft/frame/Reshape_1", "op": "Reshape", "input": ["StatefulPartitionedCall/vowel_classifier_1/mel_spectrogram_1/stft/frame/StridedSlice", "StatefulPartitionedCall/vowel_classifier_1/mel_spectrogram_1/stft/frame/concat_1"], "attr": {"T": {"type": "DT_FLOAT"}, "Tshape": {"type": "DT_INT32"}}}, {"name": "StatefulPartitionedCall/vowel_classifier_1/mel_spectrogram_1/stft/frame/Reshape_2", "op": "Reshape", "input": ["StatefulPartitionedCall/vowel_classifier_1/mel_spectrogram_1/stft/frame/mul_1", "StatefulPartitionedCall/vowel_classifier_1/mel_spectrogram_1/stft/frame/Reshape_2/shape"], "attr": {"T": {"type": "DT_INT32"}, "Tshape": {"type": "DT_INT32"}}}, {"name": "StatefulPartitionedCall/vowel_classifier_1/mel_spectrogram_1/stft/frame/add_1", "op": "AddV2", "input": ["StatefulPartitionedCall/vowel_classifier_1/mel_spectrogram_1/stft/frame/Reshape_2", "StatefulPartitionedCall/vowel_classifier_1/mel_spectrogram_1/stft/frame/Reshape_3"], "attr": {"T": {"type": "DT_INT32"}}}, {"name": "StatefulPartitionedCall/vowel_classifier_1/mel_spectrogram_1/stft/frame/GatherV2", "op": "GatherV2", "input": ["StatefulPartitionedCall/vowel_classifier_1/mel_spectrogram_1/stft/frame/Reshape_1", "StatefulPartitionedCall/vowel_classifier_1/mel_spectrogram_1/stft/frame/add_1", "StatefulPartitionedCall/vowel_classifier_1/mel_spectrogram_1/stft/frame/strided_slice"], "attr": {"Taxis": {"type": "DT_INT32"}, "Tparams": {"type": "DT_FLOAT"}, "Tindices": {"type": "DT_INT32"}, "batch_dims": {"i": "0"}}}, {"name": "StatefulPartitionedCall/vowel_classifier_1/mel_spectrogram_1/stft/frame/Reshape_4", "op": "Reshape", "input": ["StatefulPartitionedCall/vowel_classifier_1/mel_spectrogram_1/stft/frame/GatherV2", "StatefulPartitionedCall/vowel_classifier_1/mel_spectrogram_1/stft/frame/concat_2"], "attr": {"T": {"type": "DT_FLOAT"}, "Tshape": {"type": "DT_INT32"}}}, {"name": "StatefulPartitionedCall/vowel_classifier_1/mel_spectrogram_1/stft/mul", "op": "Mul", "input": ["StatefulPartitionedCall/vowel_classifier_1/mel_spectrogram_1/stft/frame/Reshape_4", "StatefulPartitionedCall/vowel_classifier_1/mel_spectrogram_1/stft/hann_window/sub_2"], "attr": {"T": {"type": "DT_FLOAT"}}}, {"name": "StatefulPartitionedCall/vowel_classifier_1/mel_spectrogram_1/stft/rfft/Pad", "op": "Pad", "input": ["StatefulPartitionedCall/vowel_classifier_1/mel_spectrogram_1/stft/mul", "StatefulPartitionedCall/vowel_classifier_1/mel_spectrogram_1/stft/rfft/Pad/paddings"], "attr": {"Tpaddings": {"type": "DT_INT32"}, "T": {"type": "DT_FLOAT"}}}, {"name": "StatefulPartitionedCall/vowel_classifier_1/mel_spectrogram_1/stft/rfft", "op": "RFFT", "input": ["StatefulPartitionedCall/vowel_classifier_1/mel_spectrogram_1/stft/rfft/Pad", "StatefulPartitionedCall/vowel_classifier_1/mel_spectrogram_1/stft/rfft/fft_length"], "attr": {"Treal": {"type": "DT_FLOAT"}, "Tcomplex": {"type": "DT_COMPLEX64"}}}, {"name": "StatefulPartitionedCall/vowel_classifier_1/mel_spectrogram_1/Abs", "op": "ComplexAbs", "input": ["StatefulPartitionedCall/vowel_classifier_1/mel_spectrogram_1/stft/rfft"], "attr": {"Tout": {"type": "DT_FLOAT"}, "T": {"type": "DT_COMPLEX64"}}}, {"name": "StatefulPartitionedCall/vowel_classifier_1/mel_spectrogram_1/MatMul", "op": "BatchMatMulV2", "input": ["StatefulPartitionedCall/vowel_classifier_1/mel_spectrogram_1/Abs", "StatefulPartitionedCall/vowel_classifier_1/mel_spectrogram_1/MatMul/ReadVariableOp"], "attr": {"adj_x": {"b": false}, "grad_y": {"b": false}, "T": {"type": "DT_FLOAT"}, "adj_y": {"b": false}, "grad_x": {"b": false}}}, {"name": "StatefulPartitionedCall/vowel_classifier_1/mel_spectrogram_1/add", "op": "AddV2", "input": ["StatefulPartitionedCall/vowel_classifier_1/mel_spectrogram_1/MatMul", "StatefulPartitionedCall/vowel_classifier_1/mel_spectrogram_1/add/y"], "attr": {"T": {"type": "DT_FLOAT"}}}, {"name": "StatefulPartitionedCall/vowel_classifier_1/mel_spectrogram_1/Log", "op": "Log", "input": ["StatefulPartitionedCall/vowel_classifier_1/mel_spectrogram_1/add"], "attr": {"T": {"type": "DT_FLOAT"}}}, {"name": "StatefulPartitionedCall/vowel_classifier_1/mel_spectrogram_1/ExpandDims", "op": "ExpandDims", "input": ["StatefulPartitionedCall/vowel_classifier_1/mel_spectrogram_1/Log", "StatefulPartitionedCall/vowel_classifier_1/mel_spectrogram_1/ExpandDims/dim"], "attr": {"Tdim": {"type": "DT_INT32"}, "T": {"type": "DT_FLOAT"}}}, {"name": "StatefulPartitionedCall/vowel_classifier_1/conv1_1/Relu", "op": "_FusedConv2D", "input": ["StatefulPartitionedCall/vowel_classifier_1/mel_spectrogram_1/ExpandDims", "StatefulPartitionedCall/vowel_classifier_1/conv1_1/convolution/ReadVariableOp", "StatefulPartitionedCall/vowel_classifier_1/conv1_1/Squeeze"], "device": "/device:CPU:0", "attr": {"num_host_args": {"i": "0"}, "data_format": {"s": "TkhXQw=="}, "filter_format": {"s": "SFdJTw=="}, "fused_ops": {"list": {"s": ["Qmlhc0FkZA==", "UmVsdQ=="]}}, "num_args": {"i": "1"}, "strides": {"list": {"i": ["1", "1", "1", "1"]}}, "TArgs": {"list": {"type": ["DT_FLOAT"]}}, "padding": {"s": "U0FNRQ=="}, "use_cudnn_on_gpu": {"b": true}, "leakyrelu_alpha": {"f": 0.2}, "epsilon": {"f": 0.0}, "T": {"type": "DT_FLOAT"}, "explicit_paddings": {"list": {}}, "dilations": {"list": {"i": ["1", "1", "1", "1"]}}}}, {"name": "StatefulPartitionedCall/vowel_classifier_1/bn1_1/batchnorm/mul_1", "op": "Mul", "input": ["StatefulPartitionedCall/vowel_classifier_1/conv1_1/Relu", "StatefulPartitionedCall/vowel_classifier_1/bn1_1/batchnorm/mul"], "attr": {"T": {"type": "DT_FLOAT"}}}, {"name": "StatefulPartitionedCall/vowel_classifier_1/bn1_1/batchnorm/add_1", "op": "AddV2", "input": ["StatefulPartitionedCall/vowel_classifier_1/bn1_1/batchnorm/mul_1", "StatefulPartitionedCall/vowel_classifier_1/bn1_1/batchnorm/sub"], "attr": {"T": {"type": "DT_FLOAT"}}}, {"name": "StatefulPartitionedCall/vowel_classifier_1/pool1_1/MaxPool2d", "op": "MaxPool", "input": ["StatefulPartitionedCall/vowel_classifier_1/bn1_1/batchnorm/add_1"], "attr": {"padding": {"s": "VkFMSUQ="}, "data_format": {"s": "TkhXQw=="}, "T": {"type": "DT_FLOAT"}, "explicit_paddings": {"list": {}}, "ksize": {"list": {"i": ["1", "2", "2", "1"]}}, "strides": {"list": {"i": ["1", "2", "2", "1"]}}}}, {"name": "StatefulPartitionedCall/vowel_classifier_1/conv2_1/Relu", "op": "_FusedConv2D", "input": ["StatefulPartitionedCall/vowel_classifier_1/pool1_1/MaxPool2d", "StatefulPartitionedCall/vowel_classifier_1/conv2_1/convolution/ReadVariableOp", "StatefulPartitionedCall/vowel_classifier_1/conv2_1/Squeeze"], "device": "/device:CPU:0", "attr": {"num_host_args": {"i": "0"}, "data_format": {"s": "TkhXQw=="}, "filter_format": {"s": "SFdJTw=="}, "strides": {"list": {"i": ["1", "1", "1", "1"]}}, "num_args": {"i": "1"}, "fused_ops": {"list": {"s": ["Qmlhc0FkZA==", "UmVsdQ=="]}}, "TArgs": {"list": {"type": ["DT_FLOAT"]}}, "padding": {"s": "U0FNRQ=="}, "use_cudnn_on_gpu": {"b": true}, "leakyrelu_alpha": {"f": 0.2}, "epsilon": {"f": 0.0}, "T": {"type": "DT_FLOAT"}, "explicit_paddings": {"list": {}}, "dilations": {"list": {"i": ["1", "1", "1", "1"]}}}}, {"name": "StatefulPartitionedCall/vowel_classifier_1/bn2_1/batchnorm/mul_1", "op": "Mul", "input": ["StatefulPartitionedCall/vowel_classifier_1/conv2_1/Relu", "StatefulPartitionedCall/vowel_classifier_1/bn2_1/batchnorm/mul"], "attr": {"T": {"type": "DT_FLOAT"}}}, {"name": "StatefulPartitionedCall/vowel_classifier_1/bn2_1/batchnorm/add_1", "op": "AddV2", "input": ["StatefulPartitionedCall/vowel_classifier_1/bn2_1/batchnorm/mul_1", "StatefulPartitionedCall/vowel_classifier_1/bn2_1/batchnorm/sub"], "attr": {"T": {"type": "DT_FLOAT"}}}, {"name": "StatefulPartitionedCall/vowel_classifier_1/pool2_1/MaxPool2d", "op": "MaxPool", "input": ["StatefulPartitionedCall/vowel_classifier_1/bn2_1/batchnorm/add_1"], "attr": {"ksize": {"list": {"i": ["1", "2", "2", "1"]}}, "data_format": {"s": "TkhXQw=="}, "T": {"type": "DT_FLOAT"}, "explicit_paddings": {"list": {}}, "padding": {"s": "VkFMSUQ="}, "strides": {"list": {"i": ["1", "2", "2", "1"]}}}}, {"name": "StatefulPartitionedCall/vowel_classifier_1/conv3_1/Relu", "op": "_FusedConv2D", "input": ["StatefulPartitionedCall/vowel_classifier_1/pool2_1/MaxPool2d", "StatefulPartitionedCall/vowel_classifier_1/conv3_1/convolution/ReadVariableOp", "StatefulPartitionedCall/vowel_classifier_1/conv3_1/Squeeze"], "device": "/device:CPU:0", "attr": {"num_host_args": {"i": "0"}, "data_format": {"s": "TkhXQw=="}, "filter_format": {"s": "SFdJTw=="}, "fused_ops": {"list": {"s": ["Qmlhc0FkZA==", "UmVsdQ=="]}}, "num_args": {"i": "1"}, "strides": {"list": {"i": ["1", "1", "1", "1"]}}, "TArgs": {"list": {"type": ["DT_FLOAT"]}}, "padding": {"s": "U0FNRQ=="}, "use_cudnn_on_gpu": {"b": true}, "leakyrelu_alpha": {"f": 0.2}, "epsilon": {"f": 0.0}, "T": {"type": "DT_FLOAT"}, "explicit_paddings": {"list": {}}, "dilations": {"list": {"i": ["1", "1", "1", "1"]}}}}, {"name": "StatefulPartitionedCall/vowel_classifier_1/bn3_1/batchnorm/mul_1", "op": "Mul", "input": ["StatefulPartitionedCall/vowel_classifier_1/conv3_1/Relu", "StatefulPartitionedCall/vowel_classifier_1/bn3_1/batchnorm/mul"], "attr": {"T": {"type": "DT_FLOAT"}}}, {"name": "StatefulPartitionedCall/vowel_classifier_1/bn3_1/batchnorm/add_1", "op": "AddV2", "input": ["StatefulPartitionedCall/vowel_classifier_1/bn3_1/batchnorm/mul_1", "StatefulPartitionedCall/vowel_classifier_1/bn3_1/batchnorm/sub"], "attr": {"T": {"type": "DT_FLOAT"}}}, {"name": "StatefulPartitionedCall/vowel_classifier_1/gap_1/Mean", "op": "Mean", "input": ["StatefulPartitionedCall/vowel_classifier_1/bn3_1/batchnorm/add_1", "StatefulPartitionedCall/vowel_classifier_1/gap_1/Mean/reduction_indices"], "attr": {"Tidx": {"type": "DT_INT32"}, "T": {"type": "DT_FLOAT"}, "keep_dims": {"b": false}}}, {"name": "StatefulPartitionedCall/vowel_classifier_1/dense1_1/Relu", "op": "_FusedMatMul", "input": ["StatefulPartitionedCall/vowel_classifier_1/gap_1/Mean", "StatefulPartitionedCall/vowel_classifier_1/dense1_1/Cast/ReadVariableOp", "StatefulPartitionedCall/vowel_classifier_1/dense1_1/BiasAdd/ReadVariableOp"], "device": "/device:CPU:0", "attr": {"transpose_a": {"b": false}, "transpose_b": {"b": false}, "fused_ops": {"list": {"s": ["Qmlhc0FkZA==", "UmVsdQ=="]}}, "leakyrelu_alpha": {"f": 0.2}, "num_args": {"i": "1"}, "epsilon": {"f": 0.0}, "T": {"type": "DT_FLOAT"}}}, {"name": "StatefulPartitionedCall/vowel_classifier_1/vowel_output_1/BiasAdd", "op": "_FusedMatMul", "input": ["StatefulPartitionedCall/vowel_classifier_1/dense1_1/Relu", "StatefulPartitionedCall/vowel_classifier_1/vowel_output_1/Cast/ReadVariableOp", "StatefulPartitionedCall/vowel_classifier_1/vowel_output_1/BiasAdd/ReadVariableOp"], "device": "/device:CPU:0", "attr": {"transpose_a": {"b": false}, "transpose_b": {"b": false}, "fused_ops": {"list": {"s": ["Qmlhc0FkZA=="]}}, "num_args": {"i": "1"}, "leakyrelu_alpha": {"f": 0.2}, "epsilon": {"f": 0.0}, "T": {"type": "DT_FLOAT"}}}, {"name": "StatefulPartitionedCall/vowel_classifier_1/vowel_output_1/Softmax", "op": "Softmax", "input": ["StatefulPartitionedCall/vowel_classifier_1/vowel_output_1/BiasAdd"], "attr": {"T": {"type": "DT_FLOAT"}}}, {"name": "Identity", "op": "Identity", "input": ["StatefulPartitionedCall/vowel_classifier_1/vowel_output_1/Softmax"], "attr": {"T": {"type": "DT_FLOAT"}}}], "library": {}, "versions": {"producer": 2129}}, "weightsManifest": [{"paths": ["group1-shard1of1.bin"], "weights": [{"name": "StatefulPartitionedCall/vowel_classifier_1/mel_spectrogram_1/stft/frame/zeros_like", "shape": [2], "dtype": "int32"}, {"name": "StatefulPartitionedCall/vowel_classifier_1/mel_spectrogram_1/stft/frame/mul/y", "shape": [], "dtype": "int32"}, {"name": "StatefulPartitionedCall/vowel_classifier_1/mel_spectrogram_1/stft/frame/concat/axis", "shape": [], "dtype": "int32"}, {"name": "StatefulPartitionedCall/vowel_classifier_1/mel_spectrogram_1/stft/frame/ones_like", "shape": [2], "dtype": "int32"}, {"name": "StatefulPartitionedCall/vowel_classifier_1/mel_spectrogram_1/stft/frame/floordiv_3/y", "shape": [], "dtype": "int32"}, {"name": "StatefulPartitionedCall/vowel_classifier_1/mel_spectrogram_1/stft/frame/concat_1/values_1/1", "shape": [], "dtype": "int32"}, {"name": "StatefulPartitionedCall/vowel_classifier_1/mel_spectrogram_1/stft/frame/concat_1/axis", "shape": [], "dtype": "int32"}, {"name": "StatefulPartitionedCall/vowel_classifier_1/mel_spectrogram_1/stft/frame/range_1/start", "shape": [], "dtype": "int32"}, {"name": "StatefulPartitionedCall/vowel_classifier_1/mel_spectrogram_1/stft/frame/range_1/delta", "shape": [], "dtype": "int32"}, {"name": "StatefulPartitionedCall/vowel_classifier_1/mel_spectrogram_1/stft/frame/floordiv_2", "shape": [], "dtype": "int32"}, {"name": "StatefulPartitionedCall/vowel_classifier_1/mel_spectrogram_1/stft/frame/Reshape_2/shape/1", "shape": [], "dtype": "int32"}, {"name": "StatefulPartitionedCall/vowel_classifier_1/mel_spectrogram_1/stft/frame/Reshape_3", "shape": [1, 5], "dtype": "int32"}, {"name": "StatefulPartitionedCall/vowel_classifier_1/mel_spectrogram_1/stft/frame/strided_slice", "shape": [], "dtype": "int32"}, {"name": "StatefulPartitionedCall/vowel_classifier_1/mel_spectrogram_1/stft/frame/Const", "shape": [], "dtype": "int32"}, {"name": "StatefulPartitionedCall/vowel_classifier_1/mel_spectrogram_1/stft/frame/add/x", "shape": [], "dtype": "int32"}, {"name": "StatefulPartitionedCall/vowel_classifier_1/mel_spectrogram_1/stft/frame/Reshape/shape_1", "shape": [0], "dtype": "int32"}, {"name": "StatefulPartitionedCall/vowel_classifier_1/mel_spectrogram_1/stft/frame_step", "shape": [], "dtype": "int32"}, {"name": "StatefulPartitionedCall/vowel_classifier_1/mel_spectrogram_1/stft/frame_length", "shape": [], "dtype": "int32"}, {"name": "StatefulPartitionedCall/vowel_classifier_1/mel_spectrogram_1/stft/frame/packed", "shape": [3], "dtype": "int32"}, {"name": "StatefulPartitionedCall/vowel_classifier_1/mel_spectrogram_1/stft/frame/split/split_dim", "shape": [], "dtype": "int32"}, {"name": "StatefulPartitionedCall/vowel_classifier_1/mel_spectrogram_1/stft/frame/concat_2/axis", "shape": [], "dtype": "int32"}, {"name": "StatefulPartitionedCall/vowel_classifier_1/mel_spectrogram_1/stft/hann_window/sub_2", "shape": [400], "dtype": "float32", "quantization": {"dtype": "uint8", "min": -0.0, "scale": 0.00392156862745098, "original_dtype": "float32"}}, {"name": "StatefulPartitionedCall/vowel_classifier_1/mel_spectrogram_1/stft/rfft/Pad/paddings", "shape": [3, 2], "dtype": "int32"}, {"name": "StatefulPartitionedCall/vowel_classifier_1/mel_spectrogram_1/stft/rfft/fft_length", "shape": [1], "dtype": "int32"}, {"name": "StatefulPartitionedCall/vowel_classifier_1/mel_spectrogram_1/MatMul/ReadVariableOp", "shape": [257, 40], "dtype": "float32", "quantization": {"dtype": "uint8", "min": -0.0, "scale": 0.003901328526291193, "original_dtype": "float32"}}, {"name": "StatefulPartitionedCall/vowel_classifier_1/mel_spectrogram_1/add/y", "shape": [], "dtype": "float32", "quantization": {"dtype": "uint8", "min": 9.999999974752427e-07, "scale": 1.0, "original_dtype": "float32"}}, {"name": "StatefulPartitionedCall/vowel_classifier_1/mel_spectrogram_1/ExpandDims/dim", "shape": [], "dtype": "int32"}, {"name": "StatefulPartitionedCall/vowel_classifier_1/conv1_1/convolution/ReadVariableOp", "shape": [3, 3, 1, 32], "dtype": "float32", "quantization": {"dtype": "uint8", "min": -0.3145446300506592, "scale": 0.0046256563242743996, "original_dtype": "float32"}}, {"name": "StatefulPartitionedCall/vowel_classifier_1/conv1_1/Squeeze", "shape": [32], "dtype": "float32", "quantization": {"dtype": "uint8", "min": -0.4969082264339223, "scale": 0.0032907829565160416, "original_dtype": "float32"}}, {"name": "StatefulPartitionedCall/vowel_classifier_1/bn1_1/batchnorm/mul", "shape": [32], "dtype": "float32", "quantization": {"dtype": "uint8", "min": 0.4153808355331421, "scale": 0.03282861008363611, "original_dtype": "float32"}}, {"name": "StatefulPartitionedCall/vowel_classifier_1/bn1_1/batchnorm/sub", "shape": [32], "dtype": "float32", "quantization": {"dtype": "uint8", "min": -1.0860604952363406, "scale": 0.005485154016345155, "original_dtype": "float32"}}, {"name": "StatefulPartitionedCall/vowel_classifier_1/conv2_1/convolution/ReadVariableOp", "shape": [3, 3, 32, 64], "dtype": "float32", "quantization": {"dtype": "uint8", "min": -0.8655650148204729, "scale": 0.006182607248717663, "original_dtype": "float32"}}, {"name": "StatefulPartitionedCall/vowel_classifier_1/conv2_1/Squeeze", "shape": [64], "dtype": "float32", "quantization": {"dtype": "uint8", "min": -0.4718327012716555, "scale": 0.0028770286662905824, "original_dtype": "float32"}}, {"name": "StatefulPartitionedCall/vowel_classifier_1/bn2_1/batchnorm/mul", "shape": [64], "dtype": "float32", "quantization": {"dtype": "uint8", "min": 0.21491026878356934, "scale": 0.010644192789115157, "original_dtype": "float32"}}, {"name": "StatefulPartitionedCall/vowel_classifier_1/bn2_1/batchnorm/sub", "shape": [64], "dtype": "float32", "quantization": {"dtype": "uint8", "min": -0.5356006955399233, "scale": 0.002895138894810396, "original_dtype": "float32"}}, {"name": "StatefulPartitionedCall/vowel_classifier_1/conv3_1/convolution/ReadVariableOp", "shape": [3, 3, 64, 64], "dtype": "float32", "quantization": {"dtype": "uint8", "min": -0.9432381749153138, "scale": 0.006164955391603358, "original_dtype": "float32"}}, {"name": "StatefulPartitionedCall/vowel_classifier_1/conv3_1/Squeeze", "shape": [64], "dtype": "float32", "quantization": {"dtype": "uint8", "min": -0.4599501322297489, "scale": 0.002821779952329748, "original_dtype": "float32"}}, {"name": "StatefulPartitionedCall/vowel_classifier_1/bn3_1/batchnorm/mul", "shape": [64], "dtype": "float32", "quantization": {"dtype": "uint8", "min": 0.33725953102111816, "scale": 0.014598475250543332, "original_dtype": "float32"}}, {"name": "StatefulPartitionedCall/vowel_classifier_1/bn3_1/batchnorm/sub", "shape": [64], "dtype": "float32", "quantization": {"dtype": "uint8", "min": -0.6662949919700623, "scale": 0.00237123264985926, "original_dtype": "float32"}}, {"name": "StatefulPartitionedCall/vowel_classifier_1/gap_1/Mean/reduction_indices", "shape": [2], "dtype": "int32"}, {"name": "StatefulPartitionedCall/vowel_classifier_1/dense1_1/Cast/ReadVariableOp", "shape": [64, 32], "dtype": "float32", "quantization": {"dtype": "uint8", "min": -0.9435329717748306, "scale": 0.007862774764790255, "original_dtype": "float32"}}, {"name": "StatefulPartitionedCall/vowel_classifier_1/dense1_1/BiasAdd/ReadVariableOp", "shape": [32], "dtype": "float32", "quantization": {"dtype": "uint8", "min": -0.15175941463779, "scale": 0.0016318216627719355, "original_dtype": "float32"}}, {"name": "StatefulPartitionedCall/vowel_classifier_1/vowel_output_1/Cast/ReadVariableOp", "shape": [32, 6], "dtype": "float32", "quantization": {"dtype": "uint8", "min": -1.70911517236747, "scale": 0.010817184635237152, "original_dtype": "float32"}}, {"name": "StatefulPartitionedCall/vowel_classifier_1/vowel_output_1/BiasAdd/ReadVariableOp", "shape": [6], "dtype": "float32", "quantization": {"dtype": "uint8", "min": -0.8548417661704268, "scale": 0.004361437582502178, "original_dtype": "float32"}}, {"name": "ConstantFolding/StatefulPartitionedCall/vowel_classifier_1/mel_spectrogram_1/stft/frame/concat/values_1_const_axis", "shape": [], "dtype": "int32"}]}]}